…
ing.pth ......
[2024-06-06 20:26:47,202][/home/richard/projects/fsadmet/utils/std_logger.py][INFO] - load pretrained model from ./data/pretrained/masking.pth ......
[2024-06-06 20:26:47,230][/home/richard/projects/fsadmet/utils/std_logger.py][INFO] - load pretrained model from ./data/pretrained/masking.pth ......
[2024-06-06 20:26:47,268][/home/richard/projects/fsadmet/utils/std_logger.py][INFO] - load model successful! ......

[2024-06-06 20:26:47,269][/home/richard/projects/fsadmet/utils/std_logger.py][INFO] - MetaGraphModel(
  (base_model): GNN_graphpred(
    (gnn): GNN(
      (x_embedding1): Embedding(120, 300)
      (x_embedding2): Embedding(3, 300)
      (gnns): ModuleList(
        (0): GINConv()
        (1): GINConv()
        (2): GINConv()
        (3): GINConv()
        (4): GINConv()
      )
      (batch_norms): ModuleList(
        (0): BatchNorm1d(300, eps=1e-05, momentum=0.1, affine=True, track_running_stats=True)
        (1): BatchNorm1d(300, eps=1e-05, momentum=0.1, affine=True, track_running_stats=True)
        (2): BatchNorm1d(300, eps=1e-05, momentum=0.1, affine=True, track_running_stats=True)
        (3): BatchNorm1d(300, eps=1e-05, momentum=0.1, affine=True, track_running_stats=True)
        (4): BatchNorm1d(300, eps=1e-05, momentum=0.1, affine=True, track_running_stats=True)
      )
    )
    (graph_pred_linear): Linear(in_features=300, out_features=1, bias=True)
  )
)
[2024-06-06 20:26:47,277][/home/richard/projects/fsadmet/utils/std_logger.py][INFO] - load model successful! ......

[2024-06-06 20:26:47,278][/home/richard/projects/fsadmet/utils/std_logger.py][INFO] - MetaGraphModel(
  (base_model): GNN_graphpred(
    (gnn): GNN(
      (x_embedding1): Embedding(120, 300)
      (x_embedding2): Embedding(3, 300)
      (gnns): ModuleList(
        (0): GINConv()
        (1): GINConv()
        (2): GINConv()
        (3): GINConv()
        (4): GINConv()
      )
      (batch_norms): ModuleList(
        (0): BatchNorm1d(300, eps=1e-05, momentum=0.1, affine=True, track_running_stats=True)
        (1): BatchNorm1d(300, eps=1e-05, momentum=0.1, affine=True, track_running_stats=True)
        (2): BatchNorm1d(300, eps=1e-05, momentum=0.1, affine=True, track_running_stats=True)
        (3): BatchNorm1d(300, eps=1e-05, momentum=0.1, affine=True, track_running_stats=True)
        (4): BatchNorm1d(300, eps=1e-05, momentum=0.1, affine=True, track_running_stats=True)
      )
    )
    (graph_pred_linear): Linear(in_features=300, out_features=1, bias=True)
  )
)
[2024-06-06 20:26:47,279][/home/richard/projects/fsadmet/utils/std_logger.py][INFO] - load model successful! ......

[2024-06-06 20:26:47,279][/home/richard/projects/fsadmet/utils/std_logger.py][INFO] - MetaGraphModel(
  (base_model): GNN_graphpred(
    (gnn): GNN(
      (x_embedding1): Embedding(120, 300)
      (x_embedding2): Embedding(3, 300)
      (gnns): ModuleList(
        (0): GINConv()
        (1): GINConv()
        (2): GINConv()
        (3): GINConv()
        (4): GINConv()
      )
      (batch_norms): ModuleList(
        (0): BatchNorm1d(300, eps=1e-05, momentum=0.1, affine=True, track_running_stats=True)
        (1): BatchNorm1d(300, eps=1e-05, momentum=0.1, affine=True, track_running_stats=True)
        (2): BatchNorm1d(300, eps=1e-05, momentum=0.1, affine=True, track_running_stats=True)
        (3): BatchNorm1d(300, eps=1e-05, momentum=0.1, affine=True, track_running_stats=True)
        (4): BatchNorm1d(300, eps=1e-05, momentum=0.1, affine=True, track_running_stats=True)
      )
    )
    (graph_pred_linear): Linear(in_features=300, out_features=1, bias=True)
  )
)
[2024-06-06 20:26:47,486][/home/richard/projects/fsadmet/utils/std_logger.py][INFO] - load pretrained model from ./data/pretrained/masking.pth ......
[2024-06-06 20:26:47,492][/home/richard/projects/fsadmet/utils/std_logger.py][INFO] - load pretrained model from ./data/pretrained/masking.pth ......
[2024-06-06 20:26:47,505][/home/richard/projects/fsadmet/utils/std_logger.py][INFO] - load model successful! ......

[2024-06-06 20:26:47,506][/home/richard/projects/fsadmet/utils/std_logger.py][INFO] - MetaGraphModel(
  (base_model): GNN_graphpred(
    (gnn): GNN(
      (x_embedding1): Embedding(120, 300)
      (x_embedding2): Embedding(3, 300)
      (gnns): ModuleList(
        (0): GINConv()
        (1): GINConv()
        (2): GINConv()
        (3): GINConv()
        (4): GINConv()
      )
      (batch_norms): ModuleList(
        (0): BatchNorm1d(300, eps=1e-05, momentum=0.1, affine=True, track_running_stats=True)
        (1): BatchNorm1d(300, eps=1e-05, momentum=0.1, affine=True, track_running_stats=True)
        (2): BatchNorm1d(300, eps=1e-05, momentum=0.1, affine=True, track_running_stats=True)
        (3): BatchNorm1d(300, eps=1e-05, momentum=0.1, affine=True, track_running_stats=True)
        (4): BatchNorm1d(300, eps=1e-05, momentum=0.1, affine=True, track_running_stats=True)
      )
    )
    (graph_pred_linear): Linear(in_features=300, out_features=1, bias=True)
  )
)
[2024-06-06 20:26:47,532][/home/richard/projects/fsadmet/utils/std_logger.py][INFO] - load model successful! ......

[2024-06-06 20:26:47,532][/home/richard/projects/fsadmet/utils/std_logger.py][INFO] - MetaGraphModel(
  (base_model): GNN_graphpred(
    (gnn): GNN(
      (x_embedding1): Embedding(120, 300)
      (x_embedding2): Embedding(3, 300)
      (gnns): ModuleList(
        (0): GINConv()
        (1): GINConv()
        (2): GINConv()
        (3): GINConv()
        (4): GINConv()
      )
      (batch_norms): ModuleList(
        (0): BatchNorm1d(300, eps=1e-05, momentum=0.1, affine=True, track_running_stats=True)
        (1): BatchNorm1d(300, eps=1e-05, momentum=0.1, affine=True, track_running_stats=True)
        (2): BatchNorm1d(300, eps=1e-05, momentum=0.1, affine=True, track_running_stats=True)
        (3): BatchNorm1d(300, eps=1e-05, momentum=0.1, affine=True, track_running_stats=True)
        (4): BatchNorm1d(300, eps=1e-05, momentum=0.1, affine=True, track_running_stats=True)
      )
    )
    (graph_pred_linear): Linear(in_features=300, out_features=1, bias=True)
  )
)
[2024-06-06 20:26:47,717][/home/richard/projects/fsadmet/utils/std_logger.py][INFO] - load pretrained model from ./data/pretrained/masking.pth ......
[2024-06-06 20:26:47,717][/home/richard/projects/fsadmet/utils/std_logger.py][INFO] - load pretrained model from ./data/pretrained/masking.pth ......
[2024-06-06 20:26:47,743][/home/richard/projects/fsadmet/utils/std_logger.py][INFO] - load model successful! ......

[2024-06-06 20:26:47,744][/home/richard/projects/fsadmet/utils/std_logger.py][INFO] - load model successful! ......

[2024-06-06 20:26:47,743][/home/richard/projects/fsadmet/utils/std_logger.py][INFO] - MetaGraphModel(
  (base_model): GNN_graphpred(
    (gnn): GNN(
      (x_embedding1): Embedding(120, 300)
      (x_embedding2): Embedding(3, 300)
      (gnns): ModuleList(
        (0): GINConv()
        (1): GINConv()
        (2): GINConv()
        (3): GINConv()
        (4): GINConv()
      )
      (batch_norms): ModuleList(
        (0): BatchNorm1d(300, eps=1e-05, momentum=0.1, affine=True, track_running_stats=True)
        (1): BatchNorm1d(300, eps=1e-05, momentum=0.1, affine=True, track_running_stats=True)
        (2): BatchNorm1d(300, eps=1e-05, momentum=0.1, affine=True, track_running_stats=True)
        (3): BatchNorm1d(300, eps=1e-05, momentum=0.1, affine=True, track_running_stats=True)
        (4): BatchNorm1d(300, eps=1e-05, momentum=0.1, affine=True, track_running_stats=True)
      )
    )
    (graph_pred_linear): Linear(in_features=300, out_features=1, bias=True)
  )
)
[2024-06-06 20:26:47,744][/home/richard/projects/fsadmet/utils/std_logger.py][INFO] - MetaGraphModel(
  (base_model): GNN_graphpred(
    (gnn): GNN(
      (x_embedding1): Embedding(120, 300)
      (x_embedding2): Embedding(3, 300)
      (gnns): ModuleList(
        (0): GINConv()
        (1): GINConv()
        (2): GINConv()
        (3): GINConv()
        (4): GINConv()
      )
      (batch_norms): ModuleList(
        (0): BatchNorm1d(300, eps=1e-05, momentum=0.1, affine=True, track_running_stats=True)
        (1): BatchNorm1d(300, eps=1e-05, momentum=0.1, affine=True, track_running_stats=True)
        (2): BatchNorm1d(300, eps=1e-05, momentum=0.1, affine=True, track_running_stats=True)
        (3): BatchNorm1d(300, eps=1e-05, momentum=0.1, affine=True, track_running_stats=True)
        (4): BatchNorm1d(300, eps=1e-05, momentum=0.1, affine=True, track_running_stats=True)
      )
    )
    (graph_pred_linear): Linear(in_features=300, out_features=1, bias=True)
  )
)
[2024-06-06 20:26:47,958][/home/richard/projects/fsadmet/utils/std_logger.py][INFO] - load pretrained model from ./data/pretrained/masking.pth ......
[2024-06-06 20:26:47,974][/home/richard/projects/fsadmet/utils/std_logger.py][INFO] - load model successful! ......

[2024-06-06 20:26:47,974][/home/richard/projects/fsadmet/utils/std_logger.py][INFO] - MetaGraphModel(
  (base_model): GNN_graphpred(
    (gnn): GNN(
      (x_embedding1): Embedding(120, 300)
      (x_embedding2): Embedding(3, 300)
      (gnns): ModuleList(
        (0): GINConv()
        (1): GINConv()
        (2): GINConv()
        (3): GINConv()
        (4): GINConv()
      )
      (batch_norms): ModuleList(
        (0): BatchNorm1d(300, eps=1e-05, momentum=0.1, affine=True, track_running_stats=True)
        (1): BatchNorm1d(300, eps=1e-05, momentum=0.1, affine=True, track_running_stats=True)
        (2): BatchNorm1d(300, eps=1e-05, momentum=0.1, affine=True, track_running_stats=True)
        (3): BatchNorm1d(300, eps=1e-05, momentum=0.1, affine=True, track_running_stats=True)
        (4): BatchNorm1d(300, eps=1e-05, momentum=0.1, affine=True, track_running_stats=True)
      )
    )
    (graph_pred_linear): Linear(in_features=300, out_features=1, bias=True)
  )
)
[2024-06-06 20:26:47,977][/home/richard/projects/fsadmet/utils/std_logger.py][INFO] - load pretrained model from ./data/pretrained/masking.pth ......
[2024-06-06 20:26:48,021][/home/richard/projects/fsadmet/utils/std_logger.py][INFO] - load model successful! ......

[2024-06-06 20:26:48,021][/home/richard/projects/fsadmet/utils/std_logger.py][INFO] - MetaGraphModel(
  (base_model): GNN_graphpred(
    (gnn): GNN(
      (x_embedding1): Embedding(120, 300)
      (x_embedding2): Embedding(3, 300)
      (gnns): ModuleList(
        (0): GINConv()
        (1): GINConv()
        (2): GINConv()
        (3): GINConv()
        (4): GINConv()
      )
      (batch_norms): ModuleList(
        (0): BatchNorm1d(300, eps=1e-05, momentum=0.1, affine=True, track_running_stats=True)
        (1): BatchNorm1d(300, eps=1e-05, momentum=0.1, affine=True, track_running_stats=True)
        (2): BatchNorm1d(300, eps=1e-05, momentum=0.1, affine=True, track_running_stats=True)
        (3): BatchNorm1d(300, eps=1e-05, momentum=0.1, affine=True, track_running_stats=True)
        (4): BatchNorm1d(300, eps=1e-05, momentum=0.1, affine=True, track_running_stats=True)
      )
    )
    (graph_pred_linear): Linear(in_features=300, out_features=1, bias=True)
  )
)
[2024-06-06 20:26:48,054][/home/richard/projects/fsadmet/utils/std_logger.py][INFO] - load pretrained model from ./data/pretrained/masking.pth ......
[2024-06-06 20:26:48,147][/home/richard/projects/fsadmet/utils/std_logger.py][INFO] - load model successful! ......

[2024-06-06 20:26:48,147][/home/richard/projects/fsadmet/utils/std_logger.py][INFO] - MetaGraphModel(
  (base_model): GNN_graphpred(
    (gnn): GNN(
      (x_embedding1): Embedding(120, 300)
      (x_embedding2): Embedding(3, 300)
      (gnns): ModuleList(
        (0): GINConv()
        (1): GINConv()
        (2): GINConv()
        (3): GINConv()
        (4): GINConv()
      )
      (batch_norms): ModuleList(
        (0): BatchNorm1d(300, eps=1e-05, momentum=0.1, affine=True, track_running_stats=True)
        (1): BatchNorm1d(300, eps=1e-05, momentum=0.1, affine=True, track_running_stats=True)
        (2): BatchNorm1d(300, eps=1e-05, momentum=0.1, affine=True, track_running_stats=True)
        (3): BatchNorm1d(300, eps=1e-05, momentum=0.1, affine=True, track_running_stats=True)
        (4): BatchNorm1d(300, eps=1e-05, momentum=0.1, affine=True, track_running_stats=True)
      )
    )
    (graph_pred_linear): Linear(in_features=300, out_features=1, bias=True)
  )
)
[2024-06-06 21:14:57,348][/home/richard/projects/fsadmet/utils/std_logger.py][INFO] - downstream task aucs: [0.55, 0.669, 0.494, 0.546, 0.45, 0.525]
[2024-06-06 21:14:57,348][/home/richard/projects/fsadmet/utils/std_logger.py][INFO] - mean downstream task mean auc: 0.539
[2024-06-06 21:15:10,010][/home/richard/projects/fsadmet/utils/std_logger.py][INFO] - downstream task aucs: [0.524, 0.62, 0.478, 0.525, 0.447, 0.517]
…
